…
1),activation='softmax'))\n","   cnn.compile(optimizer=tensorflow.keras.optimizers.Adamax(lr = 6.5e-6), loss='binary_crossentropy', metrics=['accuracy',tensorflow.keras.metrics.Recall(name ='recall')])\n","\n","   return cnn\n","\n","\n","createCNN().summary()\n"],"execution_count":109,"outputs":[{"output_type":"stream","text":["Model: \"sequential_106\"\n","_________________________________________________________________\n","Layer (type)                 Output Shape              Param #   \n","=================================================================\n","conv1d_421 (Conv1D)          (None, 666, 128)          10368     \n","_________________________________________________________________\n","batch_normalization_421 (Bat (None, 666, 128)          512       \n","_________________________________________________________________\n","max_pooling1d_421 (MaxPoolin (None, 166, 128)          0         \n","_________________________________________________________________\n","activation_421 (Activation)  (None, 166, 128)          0         \n","_________________________________________________________________\n","conv1d_422 (Conv1D)          (None, 163, 256)          131328    \n","_________________________________________________________________\n","batch_normalization_422 (Bat (None, 163, 256)          1024      \n","_________________________________________________________________\n","max_pooling1d_422 (MaxPoolin (None, 40, 256)           0         \n","_________________________________________________________________\n","activation_422 (Activation)  (None, 40, 256)           0         \n","_________________________________________________________________\n","conv1d_423 (Conv1D)          (None, 37, 256)           262400    \n","_________________________________________________________________\n","batch_normalization_423 (Bat (None, 37, 256)           1024      \n","_________________________________________________________________\n","max_pooling1d_423 (MaxPoolin (None, 9, 256)            0         \n","_________________________________________________________________\n","activation_423 (Activation)  (None, 9, 256)            0         \n","_________________________________________________________________\n","conv1d_424 (Conv1D)          (None, 8, 512)            262656    \n","_________________________________________________________________\n","batch_normalization_424 (Bat (None, 8, 512)            2048      \n","_________________________________________________________________\n","max_pooling1d_424 (MaxPoolin (None, 2, 512)            0         \n","_________________________________________________________________\n","activation_424 (Activation)  (None, 2, 512)            0         \n","_________________________________________________________________\n","average_pooling1d_106 (Avera (None, 1, 512)            0         \n","_________________________________________________________________\n","flatten_106 (Flatten)        (None, 512)               0         \n","_________________________________________________________________\n","dropout_106 (Dropout)        (None, 512)               0         \n","_________________________________________________________________\n","dense_106 (Dense)            (None, 2)                 1026      \n","=================================================================\n","Total params: 672,386\n","Trainable params: 670,082\n","Non-trainable params: 2,304\n","_________________________________________________________________\n"],"name":"stdout"}]},{"cell_type":"code","metadata":{"id":"yRh88hTFA8lU","colab_type":"code","colab":{"base_uri":"https://localhost:8080/","height":124},"execution
…
