…
1),activation='softmax'))\n","   cnn.compile(optimizer=tensorflow.keras.optimizers.Adamax(lr = 6.5e-6), loss='binary_crossentropy', metrics=['accuracy',tensorflow.keras.metrics.Recall(name ='recall')])\n","\n","   return cnn\n","\n","\n","createCNN().summary()\n"],"execution_count":null,"outputs":[{"output_type":"stream","text":["Model: \"sequential_77\"\n","_________________________________________________________________\n","Layer (type)                 Output Shape              Param #   \n","=================================================================\n","conv1d_307 (Conv1D)          (None, 666, 128)          10368     \n","_________________________________________________________________\n","batch_normalization_303 (Bat (None, 666, 128)          512       \n","_________________________________________________________________\n","max_pooling1d_303 (MaxPoolin (None, 166, 128)          0         \n","_________________________________________________________________\n","activation_301 (Activation)  (None, 166, 128)          0         \n","_________________________________________________________________\n","conv1d_308 (Conv1D)          (None, 163, 256)          131328    \n","_________________________________________________________________\n","batch_normalization_304 (Bat (None, 163, 256)          1024      \n","_________________________________________________________________\n","max_pooling1d_304 (MaxPoolin (None, 40, 256)           0         \n","_________________________________________________________________\n","activation_302 (Activation)  (None, 40, 256)           0         \n","_________________________________________________________________\n","conv1d_309 (Conv1D)          (None, 37, 256)           262400    \n","_________________________________________________________________\n","batch_normalization_305 (Bat (None, 37, 256)           1024      \n","_________________________________________________________________\n","max_pooling1d_305 (MaxPoolin (None, 9, 256)            0         \n","_________________________________________________________________\n","activation_303 (Activation)  (None, 9, 256)            0         \n","_________________________________________________________________\n","conv1d_310 (Conv1D)          (None, 8, 512)            262656    \n","_________________________________________________________________\n","batch_normalization_306 (Bat (None, 8, 512)            2048      \n","_________________________________________________________________\n","max_pooling1d_306 (MaxPoolin (None, 2, 512)            0         \n","_________________________________________________________________\n","activation_304 (Activation)  (None, 2, 512)            0         \n","_________________________________________________________________\n","average_pooling1d_71 (Averag (None, 1, 512)            0         \n","_________________________________________________________________\n","flatten_69 (Flatten)         (None, 512)               0         \n","_________________________________________________________________\n","dropout_73 (Dropout)         (None, 512)               0         \n","_________________________________________________________________\n","dense_73 (Dense)             (None, 2)                 1026      \n","=================================================================\n","Total params: 672,386\n","Trainable params: 670,082\n","Non-trainable params: 2,304\n","_________________________________________________________________\n"],"name":"stdout"}]},{"cell_type":"code","metadata":{"id":"yRh88hTFA8lU","colab_type":"code","colab":{"base_uri":"https://localhost:8080/","height":124},"execution
…
