…
e":"stdout"},{"output_type":"display_data","data":{"image/png":"…\n","text/plain":["<Figure size 432x288 with 1 Axes>"]},"metadata":{"tags":[],"needs_background":"light"}},{"output_type":"stream","text":["mean accuracy 0.851 +/- 0.019\n","mean lossless 0.349 +/- 0.039\n","mean recall 0.899 +/- 0.003\n","start final prediction\n","Model: \"sequential_15\"\n","_________________________________________________________________\n","Layer (type)                 Output Shape              Param #   \n","=================================================================\n","conv1d_57 (Conv1D)           (None, 897, 128)          3200      \n","_________________________________________________________________\n","batch_normalization_57 (Batc (None, 897, 128)          512       \n","_________________________________________________________________\n","max_pooling1d_57 (MaxPooling (None, 299, 128)          0         \n","_________________________________________________________________\n","activation_57 (Activation)   (None, 299, 128)          0         \n","_________________________________________________________________\n","conv1d_58 (Conv1D)           (None, 296, 128)          65664     \n","_________________________________________________________________\n","batch_normalization_58 (Batc (None, 296, 128)          512       \n","_________________________________________________________________\n","max_pooling1d_58 (MaxPooling (None, 98, 128)           0         \n","_________________________________________________________________\n","activation_58 (Activation)   (None, 98, 128)           0         \n","_________________________________________________________________\n","conv1d_59 (Conv1D)           (None, 95, 255)           130815    \n","_________________________________________________________________\n","batch_normalization_59 (Batc (None, 95, 255)           1020      \n","_________________________________________________________________\n","max_pooling1d_59 (MaxPooling (None, 31, 255)           0         \n","_________________________________________________________________\n","activation_59 (Activation)   (None, 31, 255)           0         \n","_________________________________________________________________\n","conv1d_60 (Conv1D)           (None, 28, 512)           522752    \n","_________________________________________________________________\n","batch_normalization_60 (Batc (None, 28, 512)           2048      \n","_________________________________________________________________\n","max_pooling1d_60 (MaxPooling (None, 9, 512)            0         \n","_________________________________________________________________\n","activation_60 (Activation)   (None, 9, 512)            0         \n","_________________________________________________________________\n","average_pooling1d_15 (Averag (None, 1, 512)            0         \n","_________________________________________________________________\n","flatten_15 (Flatten)         (None, 512)               0         \n","_________________________________________________________________\n","dense_15 (Dense)             (None, 2)                 1026      \n","=================================================================\n","Total params: 727,549\n","Trainable params: 725,503\n","Non-trainable params: 2,046\n","_________________________________________________________________\n","(1056, 5400)\n","Train on 3326 samples, validate on 370 samples\n","Epoch 1/45\n","3326/3326 [==============================] - 4s 1ms/step - loss: 0.4478 - accu
…
