…
001),activation='softmax'))\n","   cnn.compile(optimizer=tensorflow.keras.optimizers.Adamax(lr = 6.5e-6), loss='binary_crossentropy', metrics=['accuracy',tensorflow.keras.metrics.Recall(name ='recall')])\n","\n","   return cnn\n","\n","\n","createCNN().summary()\n"],"execution_count":53,"outputs":[{"output_type":"stream","text":["Model: \"sequential_25\"\n","_________________________________________________________________\n","Layer (type)                 Output Shape              Param #   \n","=================================================================\n","conv1d_97 (Conv1D)           (None, 666, 128)          10368     \n","_________________________________________________________________\n","batch_normalization_97 (Batc (None, 666, 128)          512       \n","_________________________________________________________________\n","max_pooling1d_97 (MaxPooling (None, 166, 128)          0         \n","_________________________________________________________________\n","activation_97 (Activation)   (None, 166, 128)          0         \n","_________________________________________________________________\n","conv1d_98 (Conv1D)           (None, 163, 256)          131328    \n","_________________________________________________________________\n","batch_normalization_98 (Batc (None, 163, 256)          1024      \n","_________________________________________________________________\n","max_pooling1d_98 (MaxPooling (None, 40, 256)           0         \n","_________________________________________________________________\n","activation_98 (Activation)   (None, 40, 256)           0         \n","_________________________________________________________________\n","conv1d_99 (Conv1D)           (None, 37, 256)           262400    \n","_________________________________________________________________\n","batch_normalization_99 (Batc (None, 37, 256)           1024      \n","_________________________________________________________________\n","max_pooling1d_99 (MaxPooling (None, 9, 256)            0         \n","_________________________________________________________________\n","activation_99 (Activation)   (None, 9, 256)            0         \n","_________________________________________________________________\n","conv1d_100 (Conv1D)          (None, 8, 512)            262656    \n","_________________________________________________________________\n","batch_normalization_100 (Bat (None, 8, 512)            2048      \n","_________________________________________________________________\n","max_pooling1d_100 (MaxPoolin (None, 2, 512)            0         \n","_________________________________________________________________\n","activation_100 (Activation)  (None, 2, 512)            0         \n","_________________________________________________________________\n","average_pooling1d_25 (Averag (None, 1, 512)            0         \n","_________________________________________________________________\n","flatten_25 (Flatten)         (None, 512)               0         \n","_________________________________________________________________\n","dropout_25 (Dropout)         (None, 512)               0         \n","_________________________________________________________________\n","dense_25 (Dense)             (None, 2)                 1026      \n","=================================================================\n","Total params: 672,386\n","Trainable params: 670,082\n","Non-trainable params: 2,304\n","_________________________________________________________________\n"],"name":"stdout"}]},{"cell_type":"markdown","metadata":{"id":"4ur8_eDU79ty","colab_type":"text"},"source":["##à**FUNZIONI PER VALIDATION ETEST**"]},{"cell_type":"
…
