…
e":"stdout"},{"output_type":"display_data","data":{"image/png":"…\n","text/plain":["<Figure size 432x288 with 1 Axes>"]},"metadata":{"tags":[],"needs_background":"light"}},{"output_type":"stream","text":["mean accuracy 0.909 +/- 0.010\n","mean lossless 0.458 +/- 0.083\n","mean recall 0.969 +/- 0.003\n","start final prediction\n","Model: \"sequential_26\"\n","_________________________________________________________________\n","Layer (type)                 Output Shape              Param #   \n","=================================================================\n","conv1d_101 (Conv1D)          (None, 1331, 128)         10368     \n","_________________________________________________________________\n","batch_normalization_101 (Bat (None, 1331, 128)         512       \n","_________________________________________________________________\n","max_pooling1d_101 (MaxPoolin (None, 332, 128)          0         \n","_________________________________________________________________\n","activation_101 (Activation)  (None, 332, 128)          0         \n","_________________________________________________________________\n","conv1d_102 (Conv1D)          (None, 329, 128)          65664     \n","_________________________________________________________________\n","batch_normalization_102 (Bat (None, 329, 128)          512       \n","_________________________________________________________________\n","max_pooling1d_102 (MaxPoolin (None, 82, 128)           0         \n","_________________________________________________________________\n","activation_102 (Activation)  (None, 82, 128)           0         \n","_________________________________________________________________\n","conv1d_103 (Conv1D)          (None, 79, 255)           130815    \n","_________________________________________________________________\n","batch_normalization_103 (Bat (None, 79, 255)           1020      \n","_________________________________________________________________\n","max_pooling1d_103 (MaxPoolin (None, 19, 255)           0         \n","_________________________________________________________________\n","activation_103 (Activation)  (None, 19, 255)           0         \n","_________________________________________________________________\n","conv1d_104 (Conv1D)          (None, 16, 512)           522752    \n","_________________________________________________________________\n","batch_normalization_104 (Bat (None, 16, 512)           2048      \n","_________________________________________________________________\n","max_pooling1d_104 (MaxPoolin (None, 4, 512)            0         \n","_________________________________________________________________\n","activation_104 (Activation)  (None, 4, 512)            0         \n","_________________________________________________________________\n","average_pooling1d_26 (Averag (None, 2, 512)            0         \n","_________________________________________________________________\n","flatten_26 (Flatten)         (None, 1024)              0         \n","_________________________________________________________________\n","dense_26 (Dense)             (None, 2)                 2050      \n","=================================================================\n","Total params: 735,741\n","Trainable params: 733,695\n","Non-trainable params: 2,046\n","_________________________________________________________________\n","(1055, 5400)\n","Train on 3326 samples, validate on 370 samples\n","Epoch 1/100\n","3326/3326 [==============================] - 5s 2ms/step - loss: 0.4465 - acc
…
